ml/models_cache/model.onnx (onnx, 246322 bytes, 16 tensors)

const_fold_opt__136 f4 [1, 1, 64]
00000000: b80b 8dbd 08c5 0040 8ce2 4540 0b81 85c1
00000010: 0aa4 373d d59e ecbe 9a44 853f 1d73 2d3f
00000020: c2a8 663f abde c73f 00f8 b63e 6a3c 90bf
00000030: 347b f53e b8a5 313f 14b2 45bd 507a 2bbf
00000040: 87c6 ec3e b040 23bf 33e6 c23f be83 3f3e
00000050: c039 4dc0 e4a5 51be 43b4 573f 7d4c b4be
00000060: 888c 17bf 4634 01bf 43ea 0f40 afa2 13bf
00000070: 7a6a ffbf fd8c 453f 8543 703e e49d a4bd
00000080: 966f 00be 05c1 8a3e 460b c3bf b001 113e
00000090: c204 9f3e 40ad 2f3f b90a 8abf 77a5 c73e
000000a0: 4950 a63e f35c f4be 5980 16bf 30c9 413b
000000b0: e972 8bbf 48cd 32bf 2f44 a4bf 90de a43f
000000c0: 1d06 213f 56be 17bf dea7 b240 fdbd babf
000000d0: 8284 313e 5d81 8140 cdb8 ecbe 6f9a 3d3f
000000e0: b771 b33e 2404 74bd e217 5ebe ad4d 1bbf
000000f0: 475a 2fbf ac6a 4ebd 012f 173f a941 6340
-0.06887001 2.0120258 3.0919523 -16.68801 0.044834174 -0.4621493 1.041156 0.67753774
0.90101254 1.5614828 0.35736084 -1.1268437 0.4794556 0.6939349 -0.04826553 -0.6698351
0.46245214 -0.6377058 1.5226501 0.187026 -3.2066498 -0.20473439 0.8425943 -0.35214606
-0.5919881 -0.5047039 2.2486732 -0.5767011 -1.9954369 0.77168256 0.23463257 -0.08037928
-0.12542567 0.27100387 -1.5237815 0.141608 0.31058317 0.68623734 -1.0784522 0.38993427
0.32483128 -0.47727165 -0.58789593 0.002956938 -1.0894443 -0.69844484 -1.2833308 1.2880421
0.62899953 -0.59274805 5.5829916 -1.458923 0.17335704 4.0470414 -0.46234742 0.7406377
0.35047695 -0.05957426 -0.21688798 -0.606654 -0.6849713 -0.0503947 0.590561 3.5508826

StatefulPartitionedCall/sequential_1/dense_1_2/Cast/ReadVariableOp:0 f4 [32, 11]
00000000: 527b bebe ebbb a13e 9799 d6be 6a7f e7bd
00000010: 2f25 993e cc9a ab3e 7792 ff3e b822 2fbd
00000020: 8e16 053f 0f3a 2f3d 1617 57be 20c5 dcbe
00000030: fad2 2bbe f8e7 4ebe 0fb0 92be ccee 573d
00000040: 7a72 a93e f3d0 013f 372b 2dbe 6069 c7be
00000050: 22eb f83e 7722 19be 3cc0 833e 73c1 573e
00000060: 627d ddbe e7fa 3c3e 017a 3dbe 3a93 9ebe
00000070: 7fd7 c6be c6ea b6be f531 ae3e a365 9ebe
00000080: 5bec 563d 3c8c 35be ca1a 3a3e 19e8 90be
00000090: d5b4 9bbe b402 133c 86e6 cdbe 0087 88be
000000a0: 60df 813e 6c2b b63e 86df 333d 7920 85be
000000b0: 9a6b a3be 3e33 61be f6cc adbe 654c 5d3e
000000c0: 2d37 153e aba0 f6bd 7eb2 d33e a0cb dfbe
000000d0: c04d 79be 80e3 d1be d9d4 fd3d 01aa 6f3d
000000e0: 6d92 9b3e 5ae8 f53e cff4 913e d2ea ecbe
000000f0: 702d 12be 06a0 65bd f4af 893c 6a0c 9cbe
00000100: dceb dbbe 8315 5ebe a81e d63e d4cb b93e
00000110: 6703 fbbd 9255 a1be d6a1 6bbe afa5 eb3e
00000120: 7c23 23be 7c96 babd 2e6d 89bc 6579 a7be
00000130: e5c8 2f3d c9cf 91be 0118 9ebe 7f24 063f
00000140: 8034 85be afd9 47be 4879 eb3b 35b3 7a3e
00000150: e568 21be b1e4 d33e d9a6 3f3c 942f d7be
00000160: 5c56 97be 909e 9fbe 1c65 abbe e958 52be
00000170: bd58 70be 1476 c2be 5156 f23d 243b 6d3e
00000180: 9d26 33be 0438 db3e 74c0 783e 5ab6 0c3e
00000190: bc56 ac3e 7149 5bbe 66b8 9cbe bd3e f7bd
000001a0: 8627 fd3e 28a8 aebe 31e3 afbe f5e8 7b3e
000001b0: b6dc b53e bbfc bdbe 11aa 343e 907a 57bd
000001c0: 9994 da3e 1d57 88be e7f7 68bb cf0c 71be
000001d0: 4d3d e13e 9095 91be 1be8 47be 7561 82be
000001e0: 49c0 a7be ee0e b93e d8fb 08be d626 20be
000001f0: d588 99be 0483 df3e 4190 dcbe e097 3dbe
00000200: 2c0c af3e 3472 ebbe 56b7 93be f1ab 6ebe
00000210: b4b0 033f c130 adbe a49f b5bc 5f0c 253e
00000220: 9d48 bebe 7e91 153f e500 8ebe 60e7 75be
00000230: 5c28 6e3d 950d 9dbe 88c8 0f3c 1f50 ea3e
00000240: 79f8 fbbd 94cd c6be e215 37be 2903 cebe
00000250: 16e6 843e 81aa 71be faed c53e e827 9e3d
00000260: ed85 e0bd 343c 5dbe 2abc 4bbe 1999 a23e
00000270: fb02 debe ab37 a73e c6e2 62be decc 7d3e
00000280: 0106 c0be 276d 2dbe f015 a5be 77a0 8a3d
00000290: 42c3 3f3e 2e4c de3e 9625 3dbd ab58 673b
000002a0: 4db5 67be 1e8e 033f 83d3 eebd f4da 8c3e
000002b0: 81c9 993e f70f 9abb 3dba 163e e054 733d
000002c0: 0e4c b1bd e3f5 a33e 6009 65bd ebb8 953e
000002d0: f5e1 fb3e 3d75 893e 871b 963e 8468 c83e
000002e0: 3077 d1be 65a6 97be 0951 d0bd 0781 9fbd
000002f0: a0c0 db3a 5983 02bf 8144 b2bd d2b2 f5be
00000300: 6def bfbe 79a0 8d3e a868 bc3e 765d e93e
00000310: b452 a53e f821 08be f2f4 73bd 2571 5bbe
00000320: 50b6 9bbe d368 883e 9ef2 69be 5c5d 5a3d
00000330: 24b3 2dbe 4eae dc3d ec00 08be e2c1 ddbd
00000340: 36aa dd3e ee3e 0a3d 70a0 d83e 6089 e63d
00000350: d029 53bd 193f bbbe bc02 a8be 97c9 9f3e
00000360: a4cb b1be 49c2 d7bd a396 d0bd 2ae1 d33e
00000370: 2e15 4f3a ecf9 b4be 2108 c5be 8fdf aebe
00000380: 56b8 b1be 809f 5ebe 0c1a bc3e 45f3 a8be
00000390: 8ebb c5be f737 9e3e 50e7 573e 22f2 69be
000003a0: 448c bd3e aa74 88be a632 bc3e 100b 923c
000003b0: f044 dfbe 54bb 2e3e 74d8 e23e dfb1 ebbd
000003c0: cf2c db3e 94c3 ecbd 44ad 08be b2d4 99be
000003d0: ea9b ff3c 02fe dd3e 332d a7be 12b2 e53e
000003e0: 3522 ca3e d17d 29bd 1c47 37be 93da 983e
000003f0: 0cd5 5dbe 19c1 98be 5c88 873e 7560 0a3e
-0.3720346 0.31588683 -0.41914055 -0.11303599 0.2991118 0.33516538 0.4991643 -0.04275772
0.5198754 0.04277998 -0.210049 -0.43119144 -0.167797 -0.20205677 -0.28649947 0.05271797
0.3309515 0.50709456 -0.16911016 -0.38947582 0.48616892 -0.14954554 0.257326 0.21069889
-0.43259722 0.18455087 -0.18503572 -0.309717 -0.38836285 -0.35725993 0.3402249 -0.30936918
0.0524715 -0.17729276 0.18174282 -0.28302076 -0.304114 0.008972812 -0.40214938 -0.26665497
0.25365734 0.35580003 0.04391434 -0.26001337 -0.3191803 -0.21992204 -0.33945435 0.21611173
0.14571829 -0.12042364 0.41347116 -0.4371004 -0.24346066 -0.4099388 0.12394113 0.058511738
0.30385152 0.48028833 0.28507087 -0.46272904 -0.14275146 -0.056060813 0.016807534 -0.3047822
-0.42953384 -0.21687894 0.41820264 0.3628832 -0.12256508 -0.31510597 -0.23010954 0.46024844
-0.15931505 -0.09110734 -0.016775694 -0.32709804 0.042916197 -0.2847884 -0.3087769 0.5239944
-0.26016617 -0.19516633 0.0071860887 0.24482425 -0.1576267 0.41385415 0.011697494 -0.42028487
-0.29558074 -0.3117566 -0.33475578 -0.20541729 -0.23471351 -0.3798071 0.1183287 0.23167092
-0.17495199 0.42816174 0.24292165 0.13741437 0.33659923 -0.21414734 -0.30609435 -0.12072513
0.49444216 -0.34112668 -0.3435302 0.24600585 0.35519952 -0.3710688 0.17643 -0.05260712
0.42691496 -0.26628962 -0.0035548152 -0.23540042 0.4399208 -0.2843442 -0.19522135 -0.2546498
-0.3276389 0.36144203 -0.13377321 -0.15639815 -0.29987207 0.43654644 -0.43078807 -0.18514967
0.34188974 -0.45985568 -0.28850812 -0.23307778 0.514415 -0.3382626 -0.02217085 0.16118
-0.37164775 0.5842513 -0.27735057 -0.24014044 0.05814396 -0.30674425 0.008775838 0.45764253
-0.12303252 -0.3882872 -0.17879441 -0.40236786 0.25956792 -0.23600198 0.38658124 0.07722455
-0.10963044 -0.21604997 -0.19895998 0.3175743 -0.4336165 0.3265966 -0.2215682 0.24785182
-0.3750458 -0.1693617 -0.322433 0.067688875 0.18726829 0.43417495 -0.046178423 0.0035300653
-0.22627755 0.5138873 -0.116614364 0.27510798 0.30036548 -0.00470161 0.14719482 0.059407115
-0.086570844 0.32023534 -0.055917144 0.29242644 0.4919583 0.26847258 0.29317877 0.3914224
-0.40911245 -0.29619136 -0.10171706 -0.07788282 0.0016765781 -0.5098167 -0.08704472 -0.47987992
-0.37487355 0.27661493 0.36798596 0.45579118 0.3228966 -0.13294208 -0.05955977 -0.2142988
-0.3041253 0.26642475 -0.22846457 0.05331169 -0.16962868 0.107754335 -0.13281602 -0.10827996
0.43293923 0.03375142 0.42309904 0.11256671 -0.051553547 -0.36571577 -0.32814586 0.31208488
-0.34725678 -0.10535104 -0.10184982 0.41382724 0.00078995794 -0.35346925 -0.38482764 -0.34154937
-0.3471095 -0.21740532 0.36738622 -0.329981 -0.38619655 0.30902073 0.21084332 -0.22846273
0.37021077 -0.26651508 0.36757392 0.01782754 -0.43607283 0.17063648 0.44305766 -0.115085356
0.42807624 -0.11560741 -0.13347346 -0.30045086 0.031202275 0.43357855 -0.32651672 0.4486242
0.39479223 -0.041379754 -0.1789822 0.2985426 -0.21663302 -0.29834822 0.2647122 0.13513358

StatefulPartitionedCall/sequential_1/dense_1_2/BiasAdd/ReadVariableOp:0 f4 [11]
00000000: e9de 01bd 4240 b4bd 1e02 cd3d a4ff babc
00000010: ecc5 533d 5aad 983d 320b 423c 0bb1 a8bd
00000020: b65d bcbc 3a28 94bc 860a 67bd
-0.031706724 -0.08801319 0.100101694 -0.022826977 0.051702425 0.07454939 0.0118434895 -0.08236893
-0.022993904 -0.018085588 -0.05640652

StatefulPartitionedCall/sequential_1/dense_1/Cast/ReadVariableOp:0 f4 [32, 32]
00000000: de54 0abb 84da 02bc 8c62 88bb 34b8 b9bc
00000010: c109 933c 8380 123d c959 873c d28c 9c3c
00000020: f39b 45bd f356 a8bd 24e2 363d 551c 5b3d
00000030: de5c 08bd c493 143d 0be9 41bd ac15 fe3c
00000040: 306c fd3c a900 693c f5c0 acbc edb4 d4bc
00000050: 7e62 2dbd ada5 093d 8142 a13c 8d08 82bd
00000060: 9455 f0bc 9514 07bd edf5 ce3c 2606 a3bc
00000070: 6f93 213d d84a 73bd 13df 32ba 0bb3 17bd
00000080: 54d8 953b 9f5f fb3b 0dd3 213d 4537 a6bd
00000090: 95c2 bdbb 1516 d53c 0f2e c9bc 87df db3c
000000a0: 9e58 093c 1f1e a739 3607 03bc 6812 73bd
000000b0: 9573 0e3d dcc6 73bd f714 063d 1743 bcbc
000000c0: 264e 203d 20a7 0c3d d069 5abc 16e3 b63d
000000d0: 89b6 0e3d e654 413d 16fb 103d 192a 653d
000000e0: 0db5 56bd f97d ba3c b6b8 043c 9a8e 48bd
000000f0: 398c 97bc f24c 91bd efb5 a33d 090c 9abc
00000100: 42ce 01bd 7364 123d ba36 6fbc d111 c0bc
00000110: 191b 113d decc 58bd 968e 9bbd 2628 b5bc
00000120: 7c18 403d ab48 24bd 94cf a23b e479 9fbc
00000130: f008 66bd 4cf1 29bd 327f 2c3c 3388 f43c
00000140: 4767 11bd 0503 df3c 6759 78bb 5ecf 363d
00000150: a19d 463c 0c64 203d ca32 e83c ada8 293d
00000160: d6f2 01bc aabd c63c 3aeb 4d3c 0c63 afbc
00000170: 5c61 eabb e8dd 95bd 515c 263d 429d d5ba
00000180: 9967 ba3c a39a d93c f2f0 11bd 7e06 84bd
00000190: f93d b53c 5b3a 8cbd 098f aebd 557d 403d
000001a0: 2b03 e83b 729e 42bc a54d 9fbc 6636 2ebc
000001b0: c390 a63c 2466 19bd 8e6b 4e3c 7d1d 393c
000001c0: 8ddf b33c d5f8 c0bb 158f b6bc 37b1 fdbc
000001d0: 9a65 25bd bd8a 9cbd 8bf9 41bd 47c2 553d
000001e0: 538d 013d a91f 83bd ec24 21bd b9bc 893d
000001f0: 430c fbbc 3db7 853d d6fc 843d 6ec9 c93d
00000200: 2748 b33c 273e 283d 91c0 d5bb 20f6 54bd
00000210: e7dc fdbc 131f afbd a008 873c ba66 f5bc
00000220: 4c2a ceba 4e2b 603c 54a2 98bb c2bb 25bc
00000230: b809 823d 570c 1b3d e664 de3c ee5d ee3c
00000240: 54bf 5bbd d7ba 3b3c 2d7b a53c e841 18bc
00000250: 443f b23d 089d 0bbd ec89 43bd dd33 bf3c
00000260: df53 063d 5f2d 75bd 8aa5 84bc 3467 5439
00000270: 3d30 8b3c bf87 b4bc e93c f33c c479 9f3c
00000280: 2ed1 66bd 0827 8c3c b7c0 30bd 6576 98bc
00000290: ac38 3cbd 53e6 373d 92bf 0a3d dd1b 8cbc
000002a0: 025c 89bc 950d 893c 7a8c a13b f237 2f3d
000002b0: 68f0 b83c 8fd6 a03c 4620 1b3d 4505 07bd
000002c0: edea 16bc 687f d1bc 451a 95bc 3be0 2c3d
000002d0: b1b5 0cbd fa09 8d3b f007 2cbd 41c2 0a3c
000002e0: 2ab2 873c fc39 593d 36c9 20bd 93fb 69bd
000002f0: e3ab 38bd 3ef0 4c3d 8121 383d 6f8b 10bd
00000300: 1867 6fbd 1362 70bd c4d9 813d f128 343c
00000310: 4b63 07bd 0e85 093d 2265 0ebd 0681 92bc
00000320: 51dc 2fbd c2c5 53bd 0577 e0bc d3b8 c43c
00000330: 4b29 a5bc b3dc 1ebd 8455 7b3b 1332 283c
00000340: 4373 123c 3b4f d43b f703 dabc ef96 753c
00000350: b956 ecbc 9026 0e3c b952 c8bd ac48 153d
00000360: 65b7 01bd 4118 143d 3ff3 5a3d 9c35 543d
00000370: 25f8 203d a5a9 273d a0d9 b9bb 62b0 003d
00000380: eb73 fb3c 9812 4cbc 778d c2bc ffb2 25bd
00000390: abca 02bd fb59 45bc 5577 233c 9d16 873d
000003a0: 3a88 c8bc 69be 27bb 19a6 803d b1ae 92bb
000003b0: 7070 e2bc bfac b5bc c1e4 a6bd de51 873b
000003c0: 2122 02bd a516 9d3c a708 9abd 0ade d0bc
000003d0: 05ba 4d3c 0998 10bd 2ed2 823c 71c6 923c
000003e0: 7fa3 6dbc 0687 aebc 16a6 df3c d309 0fbd
000003f0: 619b ae3c 5d4f f23c b374 d63c 2ba9 8b3b
-0.0021107714 -0.0079866685 -0.0041621383 -0.022670843 0.017948987 0.03576709 0.016522305 0.019110117
-0.048244428 -0.08219709 0.04464926 0.053493816 -0.03329169 0.036273733 -0.047341388 0.031016193
0.030935377 0.014221349 -0.021088103 -0.025965178 -0.042330258 0.033605266 0.019685032 -0.06349287
-0.029337682 -0.032978613 0.02526375 -0.019900393 0.039447244 -0.05939755 -0.0006823402 -0.037035983
0.0045729075 0.007671311 0.039507914 -0.081160106 -0.0057910183 0.026011506 -0.024558095 0.026839985
0.008382944 0.00031875164 -0.007997325 -0.059343725 0.034778196 -0.05951582 0.032734837 -0.02298121
0.03913703 0.03433907 -0.013330892 0.08930032 0.034842048 0.047200106 0.035395704 0.05594835
-0.052418757 0.022765147 0.008100679 -0.04896412 -0.01849948 -0.07094754 0.079936855 -0.018804567
-0.031690843 0.035740327 -0.01460045 -0.023445996 0.035426233 -0.05292975 -0.075955555 -0.02211387
0.04689835 -0.040108364 0.004968593 -0.019467302 -0.056160867 -0.041489884 0.010528373 0.029850101
-0.035498884 0.02722312 -0.0037895085 0.044631355 0.012122543 0.039157912 0.02834453 0.041420627
-0.007931432 0.02426036 0.012568289 -0.021409534 -0.0071527194 -0.07317716 0.040615384 -0.0016297477
0.022754477 0.026562994 -0.035630174 -0.06446551 0.022124277 -0.06847068 -0.085233755 0.046994526
0.007080456 -0.011878597 -0.019446203 -0.010633087 0.0203327 -0.037450925 0.012598885 0.011298534
0.021957183 -0.005889038 -0.022285024 -0.030968292 -0.040380098 -0.0764365 -0.047357123 0.05218723
0.031628918 -0.06402523 -0.039341852 0.06725449 -0.030645495 0.065290906 0.06493537 0.09852873
0.02188499 0.041074898 -0.0065232 -0.051992536 -0.030989124 -0.08550849 0.016483605 -0.02995621
-0.0015729158 0.0136822 -0.004658023 -0.010115566 0.0634951 0.037853565 0.027147721 0.029097524
-0.05364926 0.01145812 0.020200336 -0.009293057 0.08703473 -0.034085304 -0.047738954 0.02334016
0.03279483 -0.059857722 -0.016192216 0.00020256342 0.016990775 -0.022037385 0.02969213 0.019467242
-0.056351833 0.017108455 -0.043152537 -0.018611142 -0.045952484 0.04489739 0.033874102 -0.01710313
-0.016767506 0.01673011 0.004930076 0.042777963 0.022575572 0.01963356 0.037872575 -0.03296401
-0.009211284 -0.025573447 -0.018201003 0.04220603 -0.034352962 0.004304168 -0.041999757 0.008469165
0.016564447 0.053033814 -0.03925439 -0.057124685 -0.0450858 0.0500338 0.044953827 -0.035289224
-0.058447927 -0.05868728 0.063403636 0.010996089 -0.033053678 0.033574156 -0.034764417 -0.017883789
-0.04293472 -0.05170227 -0.027400503 0.024013912 -0.020161292 -0.038784694 0.0038350532 0.010265845
0.008938613 0.0064791716 -0.026613219 0.014989599 -0.028849946 0.008676186 -0.09781403 0.03644626
-0.03166904 0.036155943 0.053454634 0.05180894 0.03929915 0.04093327 -0.005671695 0.03141821
0.030694922 -0.012455605 -0.023749096 -0.040453907 -0.03193156 -0.012045379 0.009977181 0.0659611
-0.02447902 -0.002559567 0.062816806 -0.0044763912 -0.027641505 -0.022177098 -0.081491 0.0041296324
-0.03177083 0.019175837 -0.075211816 -0.025496501 0.012556558 -0.035301242 0.015969362 0.01791689
-0.014504313 -0.021304619 0.027300876 -0.03492148 0.021314325 0.029578859 0.026178693 0.0042621098

StatefulPartitionedCall/sequential_1/dense_1/BiasAdd/ReadVariableOp:0 f4 [32]
00000000: a66b 863e 5abe 733e 5c67 fe3d d9ee f13d
00000010: 158d c43d d108 803e bf40 423e f278 7b3e
00000020: c798 bf3c 3042 153e c368 803e d6f4 de3d
00000030: 44f3 ed3d 3e3d 1a3e aa5e 163e 886d 143e
00000040: 3ee6 943e ac3c 883e 65fe b73d 403e 3c3e
00000050: ab25 423e fced bf3d b654 593e 9937 3d3e
00000060: a992 a53e b5d6 343e 3060 863e 5993 443e
00000070: d569 843e f8f8 513e 7d0f d93d 9ad1 a83e
0.26254004 0.23803082 0.12422058 0.11813135 0.09597222 0.25006726 0.18970011 0.24557856
0.02338828 0.1457603 0.25079927 0.108865425 0.11618665 0.15062425 0.14684549 0.14494908
0.2908191 0.2660879 0.08984069 0.18383121 0.18959682 0.09371564 0.21223721 0.1847824
0.32338455 0.17660029 0.2624526 0.19196834 0.25861993 0.2050513 0.10598657 0.32972413

StatefulPartitionedCall/sequential_1/batch_normalization_2_1/batchnorm/sub:0 f4 [32]
00000000: 6989 a3bf 57d5 9ebf 3d4a 93bf b4b3 74bf
00000010: 7850 64bf 2649 a1bf e6c0 7cbf 7a1e 8fbf
00000020: 214e 50bf 6b4e 71bf 7a71 a4bf e334 81bf
00000030: 490b 67bf 1608 87bf 065f 9abf fcd6 7cbf
00000040: 5e0f c9bf 79e6 9fbf 7493 80bf 9eb3 8ebf
00000050: 5b09 8dbf 7cd9 79bf 8332 81bf 0096 86bf
00000060: 75eb cebf b72e 91bf 9ccc 90bf 5098 92bf
00000070: fbee 95bf 561e 9abf fce2 60bf bd79 cabf
-1.2776309 -1.2408856 -1.1507031 -0.95586705 -0.89185286 -1.2600448 -0.9873184 -1.1181176
-0.81369215 -0.9426028 -1.284713 -1.0094265 -0.90251595 -1.0549343 -1.2060249 -0.9876554
-1.5707815 -1.249221 -1.0044999 -1.1148565 -1.101848 -0.9759748 -1.009354 -1.0514526
-1.6165606 -1.1342381 -1.1312442 -1.1452732 -1.1713556 -1.2040508 -0.8784635 -1.5818402

StatefulPartitionedCall/sequential_1/batch_normalization_2_1/batchnorm/mul:0 f4 [32]
00000000: 6a89 7340 ef0c 9240 19c4 9540 68b4 5d40
00000010: 4974 8240 beff 7040 f9d9 4d40 927a 7d40
00000020: 7e31 ae40 19dc 7b40 ff44 9140 53ea 8a40
00000030: 742c 5b40 a742 6140 861b a740 d3e3 a540
00000040: 5b26 9340 891f 6340 14ba 8740 f96c 6d40
00000050: be1b 8040 39a2 9140 4858 5140 c6f4 6240
00000060: f423 9c40 06d1 9240 6ce5 6240 fa54 7440
00000070: 4452 5b40 01fa 6a40 f7dc 6040 7b73 8e40
3.805262 4.564079 4.6801877 3.4641361 4.076695 3.7656093 3.216429 3.960606
5.4435415 3.9353087 4.5396724 4.341104 3.4245882 3.5196931 5.22211 5.1840606
4.598432 3.5487998 4.2414646 3.7097762 4.0033865 4.5510526 3.2710133 3.5461898
4.879389 4.5880156 3.5452528 3.8176866 3.426896 3.671509 3.5134866 4.4515967

StatefulPartitionedCall/sequential_1/batch_normalization_1_2/batchnorm/sub:0 f4 [32]
00000000: 1a75 c6bc 65a9 243e 42a0 203e b08a f2bd
00000010: 8074 173d 873b 503e 9004 43be 76c6 fc3d
00000020: 9a8e d5bc dcf2 10bd 0c04 5d3d 7238 93bd
00000030: 3059 463c 7b87 6f3d 8898 04bd 0990 133e
00000040: f7f4 573e 4d2e 21be b6db ac3d ebbf 64bd
00000050: 05ac 1e3d 58b7 4f3b c3c9 473e 2ddd fd3c
00000060: 48d1 cb3d ce53 8ebd 5c06 923c 4296 e9bd
00000070: 38df 36be a7e7 05be c4a9 00bd f0dd af3d
-0.02422576 0.16080244 0.15686134 -0.11842859 0.036976337 0.20335208 -0.19044709 0.12342541
-0.026068974 -0.03538786 0.053958938 -0.071885005 0.012106225 0.058478814 -0.032372028 0.14410414
0.2108954 -0.15740319 0.08440344 -0.05584709 0.03873827 0.0031694975 0.1951056 0.030989254
0.099520266 -0.06949578 0.017825298 -0.114056125 -0.17858589 -0.1307665 -0.0314119 0.08587253

StatefulPartitionedCall/sequential_1/batch_normalization_1_2/batchnorm/mul:0 f4 [32]
00000000: 17cd 7340 48b8 4040 b084 7b40 8fe1 3e40
00000010: fdd5 6b40 bc05 5d40 201a 8340 4d2b 7d40
00000020: d3bd 5740 46c1 8e40 b8e6 6340 8755 3f40
00000030: 0732 5640 dc6c 6e40 85b7 6740 7c3a 5140
00000040: 9517 5a40 b3ad 6440 3e7d 5340 e1b2 7c40
00000050: 935f 6f40 d488 5f40 7029 4a40 e9e2 6a40
00000060: 0c81 4a40 8e7b 2a40 7902 4a40 c4e9 7c40
00000070: e1f3 7340 b119 4f40 32f0 7040 e29e 3840
3.8093927 3.0112476 3.9299736 2.982517 3.6849358 3.453475 4.096939 3.9557679
3.370961 4.461093 3.560957 2.9895952 3.3468034 3.7253942 3.6205761 3.2691946
3.4076893 3.5731018 3.3045192 3.948418 3.7402084 3.4927263 3.1587791 3.6700995
3.1641264 2.6637912 3.156401 3.951768 3.8117602 3.235943 3.7646604 2.8846974

StatefulPartitionedCall/sequential_1/batch_normalization_1/batchnorm/mul:0 f4 [1, 1, 64]
00000000: 09c6 a341 2a12 3d40 7f87 8440 941d 8841
00000010: a876 c541 358d f63f 9337 3240 9a94 b040
00000020: 0857 3740 ef48 1e40 e274 7440 4e15 d53f
00000030: c9c3 2841 b64d f63f ff93 e241 975e 8240
00000040: 5e4f 0440 c417 8140 9041 4740 6001 9c3f
00000050: 8389 8840 821d 1341 a79b 5940 3f6d 3841
00000060: d30c e140 13ad 0041 0795 2e40 5f17 0940
00000070: 22a2 c640 102e 5640 efff 8041 1d83 eb41
00000080: 3591 0a41 5b5e 2b40 b45f 0540 08fa af3f
00000090: defe a741 8ef0 6a40 68a4 2440 9d16 0441
000000a0: ad2b b341 a5d6 2741 1815 8940 63ca f041
000000b0: af03 3140 1ce7 7740 f067 ee3f 955e 2540
000000c0: 10ef f740 4ad8 ba40 049c ea40 b357 5d40
000000d0: 4e38 2e40 2224 d040 1555 f740 dd10 7940
000000e0: 462e 8c41 add4 eb41 e14c 8941 7c9b 1441
000000f0: 224d c73f 7f28 e741 33a1 af40 12bc 7e40
20.471697 2.9542336 4.14154 17.014442 24.682938 1.9261843 2.784642 5.51814
2.864687 2.4732015 3.819634 1.6647127 10.547799 1.9242465 28.322264 4.0740466
2.0673442 4.034151 3.1133766 1.218792 4.266786 9.194704 3.4001253 11.526671
7.0328155 8.042254 2.727846 2.1420515 6.2072916 3.3465614 16.124968 29.43902
8.660451 2.677634 2.0839663 1.3748178 20.999447 3.6709323 2.5725346 8.255521
22.396326 10.489903 4.283825 30.098822 2.7658498 3.8734808 1.8625469 2.5838978
7.7479324 5.8389025 7.331545 3.4584777 2.7221866 6.5044107 7.729136 3.8916543
17.522594 29.478846 17.162539 9.28796 1.5570414 28.894773 5.4884276 3.980229

Func/StatefulPartitionedCall/input/_9:0 f4 [32, 128]
00000000: a458 02ba 10ea f639 2e79 f4ba ad68 b9ba
00000010: 8b29 9139 9b42 98ba 88ee 623a 60bc 6f3a
00000020: 0df0 cfba b7d6 01bb bfcf 80bb e1b5 0f3b
00000030: b26a 8d3a 824c 19ba f237 64bb 40a3 8e39
00000040: a3d2 a6b9 b369 e03a ae4a 1dbb d625 3f39
00000050: 96cb 03bb d1b9 bb3a 944d ea38 b844 37bb
00000060: 6cd9 343b 2920 413b 274e 75bb 8104 7cba
00000070: 81ce bbba 51fa eeba f0ad baba 0920 fbb9
00000080: d2ef 52ba 2b87 3eb9 0155 36bb b563 8cb9
00000090: 59b2 ed3a ee4c c6ba 2085 393a c2b2 82b8
000000a0: ea6e 8dba f538 f9ba 90d2 8abb bc8f c83b
000000b0: 8fa9 433b 46d2 663b 6bc8 83bb acf7 85ba
000000c0: 3e1f bdb9 c352 333b 17a1 1cbb 30d6 9d3a
000000d0: 17b2 26bb d2af 543a 7610 023c a3be 7dbb
000000e0: fd0e 143c ad1c 4c3c 46da 67ba e615 78b9
000000f0: 4ad4 20bb 3cb6 e1ba a017 fbba 6439 3e3b
00000100: 159d 183c f2dd 1139 c2a5 c5bc 7a10 9dbc
00000110: 3b55 0ebc 8848 b6bb 8bfc 35bc 3c81 9f3c
00000120: fbb3 053c 1767 bbbb c4d8 2ebc fafc 1abd
00000130: 288d b4bb 31ca 163d 62d6 f73b 3ff8 05bd
00000140: 3cc5 e23c ec4b f33b 4977 a33b f69f 2e3c
00000150: 04e0 8dbc f916 b33c a636 d5bb 26ca 6dbb
00000160: f45a bb3c 57d0 1b3c 722a 2bbc 7fba c2bc
00000170: 5122 d9bb 45a9 d83b 24df 42bc 1e61 a7bc
00000180: 9c0b a8b9 aeed 67ba 562e b3ba d016 f7ba
00000190: 9b33 44ba a5a5 ca39 4f30 2739 6843 a6ba
000001a0: 1ae2 ddba d2ec 28bb ba73 8bbb eae3 663b
000001b0: ec8e b93a 5391 e5ba e8ab 59bb aebb ed39
000001c0: 8cd7 a6ba 64be d53a e47e 49bb 52a6 a23a
000001d0: 87d5 d2ba 9078 06ba 143d 8d3a 9189 46bb
000001e0: 46f6 6d3b c3e3 a13b a926 dfbb b8ed e9b9
000001f0: ca28 81ba 84d1 33bb 8ae0 2fbb 26b1 0eba
00000200: a39d 4bba b8ca 9fba 5554 283b ff89 e4ba
00000210: 7563 18ba 699f 343b e91f 453b 6b8a ee3a
00000220: cf02 bd3a bbf2 773a f768 2abb c593 7ebb
00000230: 6d54 203b 9845 4bba b97b 953a a3b3 783a
00000240: 72c9 f53a e590 233b bf6a 07bb 8f78 923b
00000250: a3c6 c83a 6b53 973a 6cbc 1bbc 8643 943a
00000260: ee10 af38 821e 13bc 4f83 62ba 5729 223b
00000270: 3a88 6a3a f668 85ba 22f4 dbba 92b9 3f3a
00000280: c2a1 8f39 58a9 08bb a2ff 5a3b deda fabb
00000290: 7b0b 76ba f586 453b 3092 c53b d315 323a
000002a0: da30 463b d1a6 fd39 9f1c 80bb 97c9 15bc
000002b0: 1b7a 6f3b 923d 233b 9d7f 123b 4988 3c3a
000002c0: b658 963b d923 243b a7cf b4bb 2699 923b
000002d0: 8310 093b e8fc 143b 611d 35bc 5ed4 e338
000002e0: 109d 6b3b 24ee 25bb 48d8 aabb a160 af3b
000002f0: 1619 ff3a 80d9 7bb9 569a 7bbb 5c8c fc3b
00000300: a2fa c939 7889 2d3d a05b ba3c b161 4dbd
00000310: 2bc9 63bc dae8 9c3b ba43 be39 3d56 10bb
00000320: d1ed 8a3b 7895 e9bc 3748 92bc 0ea2 5bbd
00000330: 52ce 803b 2dd5 80bb 5543 a43c 8c1b c43b
00000340: 3c9c 4f3c d08a e7bc b49e e8bb 9e93 83bc
00000350: 7da5 a33b 5f16 223d ee28 ac3c d0f6 1cbc
00000360: 3666 243d 6dcb 21bd 53d7 353d a09b ddb7
00000370: 1cf0 0fbd b5d3 3abc 3cac 053c 7cdf 55bc
00000380: 465e 27b9 8ac1 7d3b 0e86 8b3b 1a3f 4bb9
00000390: fcfc 0dbb 02dc a33b 08bb 8e3b 6519 503a
000003a0: 6bb3 243b ba82 a4b8 06c7 52bb bb07 b5bb
000003b0: 8ac1 843b 81f0 b4ba ac37 793a 9e52 f23a
000003c0: 4ed4 513b 5c6f db3a 3725 33bb 52a1 653b
000003d0: 7ccf d73a dca2 a8b9 b4e6 2ebc 7c87 013a
000003e0: 3685 8d3a d64f 0fbc 8007 6d37 6407 8f3b
000003f0: 8436 833a fc73 f8b9 7b6e 00bb 0abd 3f3b
-0.0004972315 0.00047095167 -0.0018651837 -0.0014145576 0.00027687507 -0.001161653 0.000865676 0.00091451965
-0.0015864387 -0.0019811818 -0.0039310153 0.0021928477 0.0010789244 -0.00058478874 -0.0034823385 0.0002720598
-0.00031818924 0.0017121345 -0.0024000811 0.00018229274 -0.002011036 0.0014322345 0.000111724396 -0.0027964544
0.0027595414 0.0029468632 -0.0037430616 -0.0009613708 -0.0014328511 -0.0018232559 -0.0014242511 -0.0004789832
-0.00080466 -0.00018170166 -0.0027821662 -0.00026777168 0.0018134817 -0.0015129128 0.0007077027 -6.232179e-05
-0.0010790501 -0.0019014167 -0.004236527 0.00612065 0.0029855703 0.0035220548 -0.0040216944 -0.0010220907
-0.00036072166 0.0027362562 -0.0023899728 0.0012041982 -0.002543574 0.00081133575 0.007938495 -0.0038718365
0.009036777 0.012458009 -0.0008844476 -0.00023659281 -0.0024540597 -0.0017220448 -0.0019156821 0.0029025907
0.009314795 0.00013910959 -0.024126891 -0.019172896 -0.008687313 -0.0055628456 -0.011107574 0.019470803
0.0081605865 -0.0057190764 -0.010671798 -0.037838914 -0.005509991 0.03681392 0.007563398 -0.03270745
0.02768194 0.007424822 0.004988585 0.010658255 -0.017318733 0.02186154 -0.0065067587 -0.003628382
0.022870518 0.009510121 -0.0104471315 -0.023770569 -0.0066264053 0.0066119754 -0.011894021 -0.020432051
-0.00032052107 -0.0008847368 -0.0013670425 -0.0018851403 -0.00074844965 0.00038651857 0.00015944357 -0.0012684884
-0.0016928345 -0.0025775922 -0.004255739 0.0035231062 0.0014156974 -0.0017514623 -0.0033214036 0.00045343995
-0.0012729033 0.0016307351 -0.0030745799 0.0012409186 -0.0016085365 -0.00051296595 0.0010775649 -0.0030294398
0.003631012 0.0049404814 -0.0068100286 -0.00044618337 -0.0009854075 -0.0027438113 -0.0026836717 -0.00054432673
-0.0007767325 -0.0012191152 0.0025685031 -0.0017436146 -0.000581316 0.0027560836 0.0030078834 0.0018199211
0.0014420393 0.0009458472 -0.0026002505 -0.0038845402 0.0024464384 -0.0007754206 0.001140467 0.0009487217
0.0018752052 0.002495819 -0.002066299 0.004469938 0.0015317987 0.0011545246 -0.0095053725 0.0011311627
8.347804e-05 -0.008979442 -0.00086407823 0.0024743879 0.0008946691 -0.0010178376 -0.0016781131 0.0007313724
0.00027395604 -0.002085289 0.003341653 -0.0076554855 -0.0009385866 0.0030140255 0.00602939 0.0006793413
0.003024152 0.00048380208 -0.003909662 -0.009142301 0.0036541286 0.0024908525 0.0022353895 0.0007191939
0.004588212 0.002504578 -0.005517918 0.004473823 0.0020914383 0.0022733752 -0.011054368 0.0001086376
0.003595177 -0.0025318945 -0.005213771 0.0053520952 0.0019462432 -0.0002401825 -0.0038391552 0.007707162
0.00038524444 0.04236743 0.022748768 -0.050141994 -0.013902943 0.0047885003 0.00036290084 -0.0022024058
0.0042397757 -0.028513655 -0.0178567 -0.053621344 0.0039308453 -0.0039316625 0.020051638 0.005984729
0.0126715265 -0.028264433 -0.007098997 -0.0160616 0.004994093 0.039572116 0.02101561 -0.009580329
0.04013654 -0.039500643 0.044394802 -2.6417722e-05 -0.035141096 -0.011403014 0.00815874 -0.013053771
-0.0001596148 0.0038720095 0.004257924 -0.00019383096 -0.0021665683 0.005000592 0.004355792 0.00079383544
0.0025131356 -7.844479e-05 -0.0032162084 -0.005524603 0.004051392 -0.0013804586 0.0009506892 0.0018487757
0.0032017413 0.0016741562 -0.0027335414 0.0035038781 0.0016465033 -0.00032164797 -0.010675121 0.0004941148
0.0010797146 -0.008747062 1.4128047e-05 0.0043648947 0.0010010754 -0.0004738866 -0.0019597101 0.0029256963

Func/StatefulPartitionedCall/input/_8:0 f4 [64, 128]
00000000: 1cbd 94ba 063e 09ba 88a3 b237 1d84 81b9
00000010: fce4 9eb9 695c 60ba 4e3c cfba b6ce e839
00000020: 9e54 0dbb 0bcb e7b9 bcb1 7cb9 9285 1e3b
00000030: 9e96 a8ba a663 e5ba 7cf1 63ba de71 ed3a
00000040: c3a4 fe39 f42f 323a ddb2 90ba 9e01 1cb9
00000050: c6d2 b2ba 1e91 58bb e8d1 31bb 714f 24bb
00000060: 0844 aaba 5acc 2e3b 20f1 6436 56ec 3eba
00000070: 42e0 603a f03a 68ba 94c5 833a a4b0 65ba
00000080: 8dd6 aaba 8019 16ba babc b9b9 2b56 293b
00000090: 897d 95ba fd03 d7ba 345b 1ebb 3b86 4f3a
000000a0: fb81 3abb 0b9f 9939 773d 39bb fb74 aa3b
000000b0: 3d26 e7ba dbda f4ba ef69 fbba e8c0 fb3a
000000c0: 6e40 893a c070 b039 ab56 c1ba bd0a ed3a
000000d0: 5739 e2ba 8037 9abb fe5b f2ba b864 62bb
000000e0: 409e 54bb 1ebd 893b a4ed e03a d387 e0ba
000000f0: 0a10 8e3a 811b 21ba 9f2b c63a d5b3 14bb
00000100: 1586 f5bb 7219 41bb 3f4d 9ebc 6df7 59bc
00000110: a5ee ec3a 84eb 34ba 72c6 0bbb d8f4 d639
00000120: dcb2 383b 6485 593b 4ade df3b d7da 1abc
00000130: d4f4 0a3c 92c3 203a affb 02bc 1b53 43bb
00000140: 12e3 15bc 89ef 8dbb 9b17 54bc 4ef1 c2bb
00000150: 4cc0 8fbb 5cce 5c3c 8e4d 483a e380 8a3b
00000160: 4e79 55bc f127 143c 55b8 9f3a 0b79 5f3a
00000170: cb57 f63a 8aac 023c d60f 173c bb62 febb
00000180: e653 07ba 791c ceba 9dab a6b9 d519 833a
00000190: a2e4 bbba 9b63 09bb 2f01 ffba 44c4 6f3a
000001a0: ef69 4cbb e3ea 79b9 065b 0bba 00e5 6b3b
000001b0: 7970 bdba b280 aaba 6114 76ba cee2 543b
000001c0: ac1c 6c39 cb6a 9839 71df aaba 6357 0c3b
000001d0: 399b b2ba d645 6bbb 4048 e1ba 548f 1ebb
000001e0: 395d 20bb b2a0 9839 f2af 283a 95d2 1abb
000001f0: e3b1 8e37 f296 46bb 694e 9c3a 9e19 abb9
00000200: 3abc 473b be15 76bb c337 bfbb bcb4 31bc
00000210: fcbd c3bb 76ca c8bb ffa6 20ba 1b7d 663b
00000220: 298e 11bc 336c 01bc 27d0 a8bb 96bc 773b
00000230: 7c7b a33a 722d 443b d3b0 993a 9b44 6abb
00000240: 8d7d 55ba 70be 623c 760a 69bb 8c6f 813b
00000250: 37e7 6b3a ad39 f8bb 19b9 be3b f1ab 9eba
00000260: 8774 883a dc53 963a 58d7 80bb d38d b43b
00000270: 2a93 adba b1f1 ecbb d1b4 db3b 1365 44bc
00000280: cf0f 33ba 79f9 0cbc 921b 99bb 9e08 a5bc
00000290: f987 27bc 281e 61bc 0724 4fb9 8ef2 353b
000002a0: 8b4b 11bc 40b2 85bc 2274 0cbc 3f52 d739
000002b0: 10a4 d439 21b2 033c 5526 9a3a bb3f 3fbc
000002c0: dd5a 75bb 5e09 be3c 0eb0 0cbc d0fc c9b9
000002d0: 0fdf e7ba f322 65bc cb52 06bc 45bf e1bb
000002e0: c162 9bbb d602 c5bb 63bb 21bc f510 01bc
000002f0: f5da 35bb 5dce 4bbc 023b 353b 8dd1 0cbd
00000300: dbc2 1c3d 9d67 a0bb 79d8 423d 40e4 a7bc
00000310: 5498 17bc 2c33 ccbb d73e 42bd ce86 1dbb
00000320: 1910 aebd 22b9 6cbc 2f8a edba e2cf 233d
00000330: 142f 263d 8b15 d43c 4f18 afbc 603d f539
00000340: 9ca9 353d df30 13bd bf69 8a3d d94b 023d
00000350: 6bca 313c 2f97 323c f74f ba3d cb49 f43c
00000360: a8ba c63d eaa8 07bc 1f91 93bc 0a48 b6bc
00000370: a9d6 b7bb 2abc 7a3c e3da 973b 1cd5 88bb
00000380: ed0c 2cbb 11a9 4b39 273d d8bb 70cd 0fbc
00000390: 4112 2dbc f852 0dbb 7ef6 c0ba 9b96 e33a
000003a0: b7e1 08bc 715e 27bc 4ff3 133b ed18 d13b
000003b0: 92d3 983b 5888 e33b 0423 443b bf77 213b
000003c0: 6df0 06bb 9338 a73c acf8 cabb 8d4f 333b
000003d0: b958 14bb 1072 bdbb 559f 96bb c998 9bba
000003e0: db6b 97bb e28b 05bc 36e0 17bc f983 22bb
000003f0: 7d11 933b 1a4e 86bc 1435 8d3b edd7 bebc
-0.0011347863 -0.00052353775 2.1295404e-05 -0.0002470323 -0.00030306715 -0.0008558692 -0.0015810819 0.000444045
-0.0021565328 -0.00044211032 -0.00024098804 0.00241885 -0.001286227 -0.0017501011 -0.0008695347 0.00181156
0.00048569412 0.00067973067 -0.0011039634 -0.00014877922 -0.0013643138 -0.003304548 -0.002713317 -0.0025071765
-0.0012990246 0.0026672096 3.4115e-06 -0.00072831416 0.0008578339 -0.000885888 0.001005339 -0.0008761978
-0.0013033912 -0.00057258457 -0.00035426562 0.0025838714 -0.001140521 -0.0016404387 -0.0024163248 0.0007916425
-0.0028458822 0.0002930093 -0.0028265396 0.0052019334 -0.0017635297 -0.0018680947 -0.0019181351 0.0019207271
0.0010471472 0.0003365334 -0.001475056 0.0018084865 -0.001725952 -0.004706323 -0.001849055 -0.0034544896
-0.0032442957 0.0042034527 0.0017160666 -0.0017130323 0.001083852 -0.0006145761 0.0015119201 -0.0022690196
-0.0074927905 -0.002946463 -0.019323943 -0.01330362 0.0018076493 -0.00069015496 -0.0021328 0.00040999684
0.002818278 0.003319108 0.006831919 -0.00945159 0.008481223 0.0006132658 -0.007994576 -0.0029804173
-0.009148376 -0.0043315333 -0.012945081 -0.005949176 -0.0043869372 0.013476934 0.0007640951 0.0042267903
-0.01302941 0.009042726 0.0012185673 0.0008524812 0.0018794475 0.007975707 0.009220084 -0.0077632344
-0.0005162343 -0.0015725038 -0.0003178985 0.0010002205 -0.0014335106 -0.002096391 -0.0019455309 0.00091463723
-0.003119107 -0.00023833993 -0.0005315993 0.003599465 -0.0014453075 -0.0013008325 -0.0009387192 0.003248382
0.00022517395 0.00029071266 -0.0013036561 0.0021414391 -0.0013626582 -0.003589978 -0.001718767 -0.0024194317
-0.0024469628 0.00029111427 0.00064349093 -0.0023624052 1.7010554e-05 -0.0030302373 0.0011925224 -0.00032634748
0.0030477182 -0.003754958 -0.0058355047 -0.010846313 -0.0059735756 -0.006127651 -0.00061284 0.0035169784
-0.008883991 -0.007899332 -0.005151767 0.0037801615 0.0012472714 0.0029934314 0.0011725671 -0.0035746458
-0.00081440137 0.013839349 -0.0035559214 0.003950065 0.0008998992 -0.007575235 0.005820405 -0.0012105686
0.0010410704 0.0011469084 -0.003931921 0.005510071 -0.0013242711 -0.0072309603 0.0067049046 -0.011986989
-0.0006830664 -0.008604401 -0.004672476 -0.02014571 -0.0102252895 -0.0137401 -0.0001975448 0.0027762982
-0.0088681085 -0.016320348 -0.00857261 0.00041069274 0.00040558027 0.008038075 0.0011760691 -0.011672909
-0.0037438192 0.023197826 -0.008586897 -0.00038526068 -0.0017690378 -0.013985383 -0.00819845 -0.006889256
-0.004741997 -0.006012301 -0.009871337 -0.007877578 -0.0027748917 -0.012439338 0.002765358 -0.03437953
0.038271766 -0.004895164 0.047569726 -0.02049458 -0.009252626 -0.006231686 -0.04742321 -0.0024036649
-0.08499164 -0.014448436 -0.0018122847 0.039993174 0.04057224 0.025889179 -0.021373896 0.0004677577
0.044351205 -0.03593528 0.06758451 0.031810615 0.010851483 0.010900303 0.09097283 0.029820343
0.097035706 -0.008280018 -0.018013535 -0.022251148 -0.0056103063 0.015303651 0.0046342476 -0.0041757952
-0.0026252822 0.00019422571 -0.006599087 -0.008777007 -0.010563434 -0.0021564346 -0.0014721898 0.001736361
-0.008354596 -0.010215388 0.0022575443 0.006381145 0.004663893 0.0069437437 0.0029928098 0.0024638025
-0.0020590082 0.020412719 -0.006194195 0.0027360648 -0.002263589 -0.0057814196 -0.0045966306 -0.0011871095
-0.0046210117 -0.008151026 -0.009269765 -0.00247979 0.0044881687 -0.016394664 0.004309306 -0.02329632

Func/StatefulPartitionedCall/input/_3:0 f4 [256]
00000000: 5600 9dbc 9aab 3c3c ab55 9fbc 92cf 963d
00000010: 13af 57bd e8b4 cc3b bcee e439 c294 99bb
00000020: e735 8abd e6c6 cc3b 3d2a 6a3c 1639 dfbc
00000030: 4216 b73b ddd8 52bc 74fc 3abd 36b3 d73c
00000040: 3a83 1f3c ecfe 52bd 21fe b03a a16e 5c3d
00000050: 6850 4a3c d849 f0bc 84d8 833b 1782 ba3c
00000060: 3a4f 653d 41a8 aa3c 8443 ef3b 54d8 5e3c
00000070: c3a6 e6bc 156b 4c3c c9fa 1cbd 8a1a 3fbd
00000080: f40a 75bc 3581 c6bd dbe3 693d 4fc4 44bd
00000090: 5242 fcbb 3761 a6bd 76e5 4abc 0af5 97bc
000000a0: 0c06 06bd 68f8 f43c 4ced 0f3d 540a ad3c
000000b0: 9ffe 543d 4465 183c 9260 fcbc 6196 833c
000000c0: 02c5 a53d dddd 8c3c 9f1e d1bc d5a5 803b
000000d0: dec0 25bd e1a3 4fbd dbcd 373b e517 85bb
000000e0: a1e1 8ebd 1132 35bc 96ad 5fbd 39d5 83bc
000000f0: 659d 733c d4c3 94bc deb1 acbb 5974 9d3b
00000100: 7f14 783f 305e 813f 8796 7c3f 8512 8b3f
00000110: 9c0f 733f 3780 853f 7287 813f 0f91 7a3f
00000120: 7be9 833f 7609 833f ac19 8a3f 602d 8a3f
00000130: 4944 7f3f 3fb8 813f 918e 713f 1b02 773f
00000140: 9cd7 813f da0b 773f da5a 7f3f 254f 803f
00000150: 4425 823f 8f70 7f3f 7a54 7d3f 83fd 813f
00000160: 63b0 7c3f 1566 833f 73fe 863f 1f7f 803f
00000170: 8445 7f3f 8b64 803f 9383 803f b04f 703f
00000180: 2f69 863f a641 733f b6eb 813f 43eb 843f
00000190: f0a1 793f b80f 823f d9de 7d3f 7865 7b3f
000001a0: 0f0d 823f 7270 7a3f 41c7 843f bf01 813f
000001b0: 836c 883f 3849 763f 87d3 833f f956 803f
000001c0: ae25 853f 4441 763f 42e5 833f 9da9 7a3f
000001d0: ca33 853f 791e 833f c80b 843f 34a3 7d3f
000001e0: 9f7d 6e3f b651 7c3f 01e8 843f 9dd1 853f
000001f0: b368 7a3f 984e 7c3f 33f3 813f 52e3 843f
00000200: 4038 7f3c 6377 e1bc 8793 a0bc 9881 473c
00000210: a440 ab3c 4013 963c 56f0 85bc 6172 c939
00000220: f7a2 32bc fac3 013c 407c 463d b049 ad3b
00000230: 41f2 0ebc 9666 9abb b4ae 93bc d7e1 f13a
00000240: 42c3 693c 8fd9 dc3c 0889 79bb d236 04bd
00000250: 3883 383c 4ece e5bc 46fb c0bb a161 3b3d
00000260: 63fa d93b ce5a b83a 5b28 e53c 535d 97bc
00000270: dd03 b23c 535a 733c d68e 8fbb d27d b1bc
00000280: 0337 0c3c 7ec1 02bd d2dd 063d eadc 593c
00000290: 7112 f0bb 2f40 843c ff16 403c 56d6 58bc
000002a0: 8258 163a e792 c23c 5e5d 003d 2583 81bc
000002b0: 411a 06bc 40b0 40bc 4365 b83c 78e5 083b
000002c0: 7071 88bd 4d36 f43c a359 0d3c 5ca2 a23c
000002d0: 27d0 19bc 807f 133d c2bc 0d3c d191 c9bc
000002e0: 896d b33c e11b 45bd f123 313d 5e7c a9bc
000002f0: c634 633c b945 f43b 3265 95bd 2d8b 9cbc
00000300: 6eda 21bd 6b5b 2e3d eedb 493c 1d64 013d
00000310: 9962 d6bc 4b1b 2cbd 4320 33bc 455d 9fbc
00000320: ad9f 073d 966c a93d 034a 8b3d 9b7f c13d
00000330: 7cfe a33d cb7b 34bb a91d 7cbd 81bb 043c
00000340: cd50 083c b0de 62bc c9d5 02bd 7fb4 da3b
00000350: d6d3 a63c cb41 d83d c07c fbba 718f d4bc
00000360: 147e b53c de3d dd3c f726 d53b 1c24 9e3c
00000370: 3d57 b03a 0528 85bc fd16 00bb c561 57bc
00000380: 9f87 983d cf0c 863b c570 9f3d fa19 ad3c
00000390: 7197 eebc 1793 4c3d ae1c 2b3b 933f 2d3c
000003a0: af4c 5a3c 691e 2cbc ac6b 023c e8a3 69bc
000003b0: fe93 cd3c b1f1 72bc 18e8 1f3c c679 10bd
000003c0: 9b8a b33b 2d1b f1bc e631 e2bb 098e 87bc
000003d0: 4a30 793b 04d9 0c3b 49ec a03c c85b 9ebc
000003e0: 9340 9abd aee5 12bc a27b 563d 7887 8d3d
000003f0: ca1e f6bc 07d7 c8bc 6391 e3bc bcff 203d
-0.0191652 0.011515522 -0.01945003 0.0736381 -0.0526572 0.0062471516 0.0004366542 -0.0046869228
-0.06748562 0.0062492965 0.014292297 -0.0272489 0.00558737 -0.012869087 -0.045650914 0.026330572
0.009735877 -0.051512644 0.0013503471 0.05381644 0.012348272 -0.029332086 0.0040236134 0.02276711
0.05598376 0.020832183 0.0073017497 0.013601381 -0.02815569 0.012476702 -0.038325105 -0.04665617
-0.014956225 -0.09692613 0.057102066 -0.048038777 -0.0076983357 -0.08124011 -0.012383809 -0.01854946
-0.03272061 0.029903606 0.035138413 0.021123089 0.052000638 0.009301487 -0.030807767 0.016062917
0.08094217 0.017195636 -0.025527297 0.0039260187 -0.040467136 -0.050693396 0.0028046283 -0.0040616863
-0.06976629 -0.0110593 -0.054608904 -0.016092883 0.014869069 -0.018159784 -0.005270227 0.0048051295
0.96906275 1.0106869 0.98667186 1.0865027 0.94945693 1.0429753 1.011946 0.9787759
1.0305628 1.0237262 1.0789084 1.0795097 0.9971357 1.0134352 0.94358164 0.9648759
1.0143924 0.9650246 0.99748003 1.0024153 1.0167623 0.99781126 0.98957026 1.0155491
0.98706645 1.0265528 1.0546402 1.0038794 0.9971545 1.0030683 1.0040153 0.93871593
1.050085 0.95022047 1.0150058 1.0384296 0.9751272 1.0161047 0.99168164 0.98201704
1.0160235 0.9782783 1.0373307 1.0078658 1.0658115 0.9620547 1.0298928 1.0026542
1.0402124 0.9619334 1.0304339 0.9791506 1.040643 1.0243675 1.0316095 0.99077153
0.9316043 0.9856218 1.0383302 1.0454594 0.9781601 0.98557425 1.0152344 1.0381873
0.015577376 -0.027522748 -0.019601597 0.012176894 0.020904846 0.018319726 -0.016349953 0.00038422926
-0.010903112 0.00792026 0.048458338 0.0052883253 -0.00872475 -0.004711936 -0.01802764 0.0018454146
0.0142677445 0.026959209 -0.0038076062 -0.032278843 0.011261754 -0.028052475 -0.005889329 0.045747403
0.006652163 0.0014065148 0.027973345 -0.018477118 0.021730358 0.014853078 -0.004381041 -0.021666441
0.008558038 -0.03192281 0.032926388 0.013297299 -0.007326417 0.016143886 0.011724233 -0.013234695
0.00057352346 0.02375169 0.031339042 -0.015809605 -0.00818497 -0.011760771 0.022509223 0.0020888727
-0.066622615 0.029811049 0.008627328 0.01985281 -0.009388006 0.036010265 0.00865096 -0.024605663
0.021902816 -0.04812229 0.043247167 -0.020689186 0.013867563 0.0074546007 -0.07294692 -0.019109333
-0.03951495 0.04256765 0.012320502 0.031589616 -0.026170062 -0.042018216 -0.010932985 -0.019453654
0.033111263 0.08272664 0.06801226 0.09448167 0.080075234 -0.0027539607 -0.061551724 0.008101345
0.008320046 -0.013847038 -0.031942163 0.006674349 0.020364683 0.10559424 -0.0019186959 -0.025947304
0.022154845 0.02700704 0.006504889 0.019304328 0.0013453733 -0.016254434 -0.0019544952 -0.013145869
0.07447743 0.0040908824 0.07785181 0.02113055 -0.029124947 0.049944963 0.0026109624 0.010574239
0.013323947 -0.010505297 0.007960241 -0.01426027 0.025094982 -0.0148281315 0.009759925 -0.035272382
0.0054791695 -0.029431904 -0.006902921 -0.01654722 0.0038023167 0.0021491656 0.01964392 -0.019330874
-0.07531848 -0.008965893 0.052364 0.06910604 -0.030043978 -0.024516596 -0.027779287 0.039306387

Func/StatefulPartitionedCall/input/_2:0 f4 [64, 256]
00000000: 5820 adb8 181d 1cb7 e3f5 91b6 c08f 1634
00000010: c473 51b7 1af2 f2b6 2d2c 2036 f420 dc37
00000020: 9106 65b9 f871 81b7 5dd4 84b8 4a27 da36
00000030: 5d75 50b9 68ce adb8 4e08 8c36 1969 87b8
00000040: 6477 1538 ee87 0db8 04cb d538 5bfc 18b8
00000050: 86c6 2d38 164e 9cb8 4605 e135 a1ea 2939
00000060: 7663 4ab8 5a79 78b7 893f 51b6 5774 c338
00000070: 3e21 0dba a44f 2434 4be1 c4b7 50dc 03b7
00000080: 9c7a 66b7 0fae af36 7505 adb7 683c 9bb8
00000090: e908 18b8 1725 ccb8 901e d737 4fae ba38
000000a0: b437 873a 1100 7239 e63b 1f38 433c 4fb9
000000b0: 2d16 e8b6 e599 74b8 465d cbb5 b20c f234
000000c0: 92c3 19b6 270c 8b35 95ea 23b7 e1ef f237
000000d0: 1468 63b8 5297 85b4 ce6d 12ba 2b08 0eb7
000000e0: 8815 5d37 b44a 2db6 96da bdb9 ae95 74ba
000000f0: a6b6 05b7 6175 7fb7 1b5f 8e37 3578 ae36
00000100: 365b 80b8 7d0a 2eb7 d4a2 e6b6 6e62 4fb3
00000110: d3d3 34b7 bbb5 7537 ceba 9b37 81f1 65b7
00000120: 16d0 5ab9 2643 0937 e676 84b8 b001 ecb7
00000130: 8fdc 8cb8 7e0c 7cb7 ea82 9bb6 4a41 9ab7
00000140: 6981 0d39 1eb8 4bb9 90c3 d637 cdcb ac38
00000150: ab07 2d39 309b 01ba 246a 1e38 1f62 d7b6
00000160: 5978 2139 2691 fbb7 1a41 14b4 a506 1938
00000170: 366f 7837 8f97 c7b5 4785 0eb8 ee80 3c39
00000180: b3c6 f6b9 2fda 4fb7 1670 9637 40ec 86b6
00000190: 3a3f 84b8 b343 8f38 8018 ba37 2534 6bb9
000001a0: c92e ad39 e48c 1138 18bf 9ab7 94cf 86b7
000001b0: 2fe3 e036 b87f 85b8 f260 8c38 756b 8c36
000001c0: 8610 fab8 2cc0 a635 a38a 3737 34d1 e836
000001d0: 6ced 6cb9 c503 6a35 1d13 f638 adf0 88b7
000001e0: ab2f 2e39 3c82 fc37 0334 33b9 3671 c4b7
000001f0: 982d 04b8 636e 81b7 d119 4538 7905 1537
00000200: de8b 92b8 99ce ab36 6ed5 3b37 5b54 1534
00000210: 3a16 2bb7 ac0d 99b7 3e2c 1c38 26c2 5a37
00000220: 4550 003a ad69 85b5 fbb2 273a 8f7b fab7
00000230: f294 9b3a fd41 fab8 b568 f7b9 e88c 91b8
00000240: c039 1738 9de0 0739 000d 8ab7 0324 d3b9
00000250: 03dd 3138 1d26 3fba 43bc 10b6 35ee 90b8
00000260: 53c8 2a38 9b74 e2b7 a7de 0038 0e73 81b6
00000270: b10f e1b6 ab86 2fb5 b194 8a36 e882 eb38
00000280: 0cb4 7fb9 306d f138 6d49 11b9 d149 9bb8
00000290: e4e1 9737 c24c 29ba e068 8d36 c986 0e38
000002a0: 8c6e e9b8 2084 d0b6 77ed 91b7 429f a73a
000002b0: 7e34 85b4 da72 f2b5 9cb5 453b ab18 ceb4
000002c0: 1514 6a38 9808 a037 19a6 4235 9cc2 06b7
000002d0: e94c 5ab8 20c9 7035 d471 8eb9 8b86 2437
000002e0: 4e77 71b9 c73d 47b9 4698 18b9 08c4 1437
000002f0: a797 7fb9 c46a 0538 0cc0 7ab7 2aad d631
00000300: d89c 9eb9 ecb2 d838 ba0a 6538 05c4 9cb8
00000310: 66c2 bdb6 65c6 1fb9 dafc 6b39 58d8 d6b9
00000320: 3ddd ee38 ccfb 01b8 5221 d537 109b cc39
00000330: 156c 93b8 0b3c bab7 e07e e7b6 bbbb 09b8
00000340: 88a9 bc38 223f e3b7 437b 99b8 89fd 4338
00000350: d87a 8439 146d ccb9 4b6f 1239 f639 22b7
00000360: c105 0e39 b344 a3b8 80d2 9637 1a07 1d39
00000370: c73b 19b9 7f72 beb8 2572 34b7 1fea 0237
00000380: 05fa fbb8 eb6c 0236 90ae 2838 e288 3f38
00000390: 0092 54b5 a88b c138 8c0b 9538 6009 0337
000003a0: 6aa4 8337 36d9 7a37 6123 5939 c3ab 90b9
000003b0: d391 1139 1941 f0b8 1e26 39b9 f8a0 50b8
000003c0: 6ae8 013a b09d 3038 0015 7838 ca30 51b9
000003d0: 922e b239 0cfc 7838 0151 d038 38e8 3fb8
000003e0: 9f30 7339 66a9 81b7 b145 4fb9 d4fb 9139
000003f0: ea57 0bb8 640d e9b7 9cf3 3038 f9bd 06b9
-8.255307e-05 -9.3050985e-06 -4.3499617e-06 1.4022135e-07 -1.24843245e-05 -7.2403463e-06 2.3867572e-06 2.6241389e-05
-0.00021841588 -1.543107e-05 -6.333806e-05 6.50148e-06 -0.00019880147 -8.287729e-05 4.173292e-06 -6.4568776e-05
3.563556e-05 -3.3743614e-05 0.00010194446 -3.647465e-05 4.1431304e-05 -7.453204e-05 1.6765341e-06 0.00016204502
-4.8253183e-05 -1.4810206e-05 -3.118041e-06 9.3199946e-05 -0.00053836766 1.5302663e-07 -2.3469931e-05 -7.859504e-06
-1.37376155e-05 5.2356695e-06 -2.0625748e-05 -7.4022275e-05 -3.6247922e-05 -9.7343865e-05 2.5644229e-05 8.901639e-05
0.0010316283 0.00023078943 3.796434e-05 -0.00019763508 -6.9167204e-06 -5.831746e-05 -1.5151825e-06 4.508525e-07
-2.2912614e-06 1.0359844e-06 -9.770175e-06 2.896035e-05 -5.4217948e-05 -2.488328e-07 -0.000558582 -8.465761e-06
1.317764e-05 -2.5822492e-06 -0.00036211748 -0.00093301653 -7.969944e-06 -1.5226514e-05 1.6972006e-05 5.199598e-06
-6.120505e-05 -1.037365e-05 -6.87349e-06 -4.8285465e-08 -1.0778155e-05 1.464545e-05 1.8564428e-05 -1.3705693e-05
-0.00020867618 8.181471e-06 -6.316397e-05 -2.8134178e-05 -6.7168025e-05 -1.5023279e-05 -4.6346004e-06 -1.8388633e-05
0.00013495017 -0.00019428178 2.5601854e-05 8.23956e-05 0.00016501422 -0.0004944084 3.7768987e-05 -6.418922e-06
0.0001539899 -2.9989122e-05 -1.3807258e-07 3.648423e-05 1.4807845e-05 -1.4870765e-06 -3.3979562e-05 0.00017977107
-0.0004706882 -1.2388961e-05 1.7933588e-05 -4.0210143e-06 -6.306027e-05 6.831381e-05 2.2184337e-05 -0.00022430772
0.0003303199 3.470191e-05 -1.8447216e-05 -1.6070706e-05 6.702168e-06 -6.365724e-05 6.693778e-05 4.184835e-06
-0.00011924007 1.2423893e-06 1.0939929e-05 6.9384932e-06 -0.0002259516 8.717728e-07 0.00011733754 -1.6324537e-05
0.00016611691 3.0101386e-05 -0.00017090146 -2.3417739e-05 -3.1513715e-05 -1.5429401e-05 4.6992503e-05 8.882366e-06
-6.987875e-05 5.1202483e-06 1.11957615e-05 1.3907395e-07 -1.0197569e-05 -1.8245388e-05 3.7234502e-05 1.3039016e-05
0.00048947736 -9.940028e-07 0.00063972146 -2.9859859e-05 0.0011869951 -0.0001193322 -0.00047189524 -6.9403846e-05
3.605499e-05 0.00012958278 -1.6456936e-05 -0.00040271887 4.240592e-05 -0.0007291751 -2.1567255e-06 -6.9108246e-05
4.0717725e-05 -2.6995598e-05 3.072494e-05 -3.8578937e-06 -6.7073493e-06 -6.538855e-07 4.1300304e-06 0.000112300564
-0.00024385768 0.00011512113 -0.00013855631 -7.404725e-05 1.8105791e-05 -0.0006458276 4.2143365e-06 3.3980967e-05
-0.00011130897 -6.2142644e-06 -1.7395925e-05 0.0012788551 -2.4811374e-07 -1.8063831e-06 0.0030168062 -3.8388438e-07
5.580865e-05 1.9077488e-05 7.2512336e-07 -8.032333e-06 -5.204688e-05 8.969964e-07 -0.0002716916 9.8064875e-06
-0.00023027995 -0.00019001133 -0.00014552576 8.8671295e-06 -0.0002437519 3.1809104e-05 -1.4945876e-05 6.247906e-09
-0.00030252966 0.000103330094 5.4607845e-05 -7.475171e-05 -5.65527e-06 -0.0001523733 0.00022505541 -0.0004097845
0.00011389933 -3.09905e-05 2.5407095e-05 0.00039025443 -7.029638e-05 -2.2200888e-05 -6.8991067e-06 -3.2838183e-05
8.996116e-05 -2.7089907e-05 -7.318568e-05 4.6727746e-05 0.00025268528 -0.00038991182 0.00013965105 -9.6694475e-06
0.00013544319 -7.785242e-05 1.7979415e-05 0.00014975332 -0.00014613486 -9.0812326e-05 -1.0755412e-05 7.803114e-06
-0.000120151824 1.9434908e-06 4.0216895e-05 4.566543e-05 -7.918861e-07 9.22897e-05 7.1070244e-05 7.810391e-06
1.5692978e-05 1.4951735e-05 0.00020707912 -0.00027593793 0.00013882601 -0.00011456217 -0.00017657175 -4.974098e-05
0.0004955592 4.2108528e-05 5.9147365e-05 -0.00019949969 0.00033985503 5.9362545e-05 9.933301e-05 -4.575422e-05
0.00023192399 -1.545688e-05 -0.0001976702 0.00027844182 -3.322206e-05 -2.7782e-05 4.218855e-05 -0.00012850006

Func/StatefulPartitionedCall/input/_10:0 f4 [128]
00000000: 051b 49bb 09bc a53d 5c00 9bbb 9e9c ef3c
00000010: e06a bcba 36bd 5d3d eed5 e4bb 7222 8ebc
00000020: 1b7d 063d 889a 2f3b da34 6f3d c2ad 393d
00000030: 75a0 ac3d 3deb a1ba 7624 16ba 26db a33d
00000040: 6080 9a3d 8b91 823c 1aa5 cf3d 5b50 abbc
00000050: e9fd 253d 89da 943c ca98 123c 2b34 b03c
00000060: 6295 203c e63b 833d e476 ff3b c6c6 ec3c
00000070: 1658 2e3d db28 9f3c e661 2fbd f410 353d
00000080: 30d4 8f3f 2aae 9e3f 0ec0 903f 6f9d 9a3f
00000090: e565 903f a865 983f 74ab 883f 39e6 8d3f
000000a0: 335a 973f 206e 903f f938 933f 2a4d 9a3f
000000b0: b2d1 973f 9709 963f 5961 923f d9a1 953f
000000c0: 5f66 933f 5ba0 933f 479b 993f 5158 8d3f
000000d0: e159 8d3f 80f5 973f 2302 923f fe0d 993f
000000e0: 346f 973f 7a1c 9e3f 5eb1 943f 7f14 943f
000000f0: 25ee 933f 0cd9 8f3f 8200 8f3f 77ac 9b3f
00000100: 6321 efba e4f0 20bd 80b6 87bd 8062 0d3d
00000110: 67fd 85bc 799a 4dbd 2774 463d 602c 223c
00000120: a76c d63b d8e4 6b3c a50a 8a3c 1803 183d
00000130: 05a0 a3bc 9354 a03c 567a 3e3d b26d a33c
00000140: b20d fa3c fdeb d03b 250e b23a e511 e9bc
00000150: 5bcf 0fbb 5ab8 a9bc d72e 2ebd afcd 883c
00000160: 8c0b 36bc af29 8f3b 856e 64bd 3e1e ac3a
00000170: 3bcd 723d e0ba 0cbd 7382 8b3c 278b e0bc
00000180: 6e2d 683d 67ce e73d 08e2 7a3d 3821 023e
00000190: 07e0 673d acfb aa3d 736d 16bc 41b0 3c3d
000001a0: 4d07 c33d a5bf 063d 387d 523d 1502 db3d
000001b0: b791 b33d 1e60 b43c 1347 cc3d 1a7a 9b3d
000001c0: 1908 783d 78d7 a63d 576b 003e ad74 ae3c
000001d0: 40f4 d13d 60ba d83c 64f7 b63d 6190 123d
000001e0: 314b a83d 43c8 053e 4c1d c03d 8b08 8b3c
000001f0: 5851 923d c0bd 473d 238c 633c c854 e83d
-0.003068627 0.080925055 -0.0047302675 0.029249486 -0.0014375113 0.054135524 -0.00698351 -0.01735041
0.032834154 0.0026794989 0.058400013 0.045331724 0.08429042 -0.0012353432 -0.0005727479 0.080007836
0.07544017 0.01593854 0.101389125 -0.02091234 0.04052535 0.018170612 0.008947561 0.02150925
0.009801241 0.06407909 0.0077961553 0.028903376 0.042564474 0.019428661 -0.042817973 0.04420562
1.123663 1.2396901 1.130861 1.2079295 1.1281096 1.1906023 1.0677323 1.1085883
1.1824402 1.1283607 1.1501762 1.2054799 1.1860869 1.1721677 1.1435958 1.1690017
1.1515616 1.1533312 1.2000512 1.1042577 1.1043054 1.1871796 1.1406902 1.1957395
1.1830812 1.235244 1.1616628 1.1568755 1.1557051 1.1238112 1.117203 1.2162007
-0.0018244203 -0.03929223 -0.06626606 0.034517765 -0.016356183 -0.050196145 0.048450615 0.009898275
0.006543714 0.014397822 0.016850779 0.037112325 -0.019973764 0.019571578 0.046503387 0.019949768
0.030524109 0.0063757882 0.0013584538 -0.028450916 -0.0021943662 -0.020717788 -0.04252514 0.01669964
-0.011111151 0.0043689827 -0.055769462 0.0013131571 0.059277754 -0.034357905 0.017029976 -0.027410103
0.05668395 0.11318665 0.061250716 0.12707984 0.056610133 0.08348784 -0.009181368 0.046066526
0.09522877 0.03289761 0.05138895 0.106937565 0.08768027 0.022018488 0.09974494 0.075916484
0.060554598 0.08146566 0.12540947 0.02129587 0.10251665 0.026456058 0.08933905 0.03578222
0.082174666 0.13064675 0.09380588 0.016971847 0.07144421 0.048764944 0.013888392 0.11344296
